Assets/example.onnx (onnx, 318784 bytes, 4 tensors)

layers.0.bias f4 [100]
000000 0a 34 f5 3c 7e f8 c9 bc 0e 19 5b bc 88 4f de 3b
       0.02993204 -0.024654623 -0.013372673 0.006784383
000010 00 f1 ac 3a 54 a6 03 3c 1a 2c d5 3c 50 bc db 3b
       0.0013194382 0.008035261 0.026022006 0.006705798
000020 a0 d0 cb bc 85 6d b6 bc 6e 83 91 3c b8 0a 8c 3c
       -0.024879754 -0.02226902 0.017762866 0.017094955
000030 18 58 67 bc 28 43 0d 3c 10 33 d8 bc 83 0b ec bc
       -0.014120124 0.008621968 -0.026391536 -0.028814083
000040 13 80 c5 bc d8 54 58 bc 7c a7 d2 bc 00 63 11 39
       -0.024108922 -0.013203822 -0.025714628 0.00013865158
000050 1e 52 ca 3c c5 80 e7 bc 58 35 0c bd 80 ed a7 bb
       0.02469736 -0.028259644 -0.03423056 -0.0051247478
000060 08 0c 80 3c a4 25 25 3c 0c cc ba 3c f5 c5 0b 3d
       0.015630737 0.010079775 0.022802375 0.034124333
000070 f5 78 d7 bc 60 69 17 bb 86 22 05 bd b8 fb 8b bb
       -0.026302794 -0.002310358 -0.032503627 -0.0042719506
000080 5c 3f 10 bd bc 12 00 3c d0 da 8f 3c 62 8f f6 3c
       -0.035216674 0.007816967 0.017560393 0.030097667
000090 7a af d1 bc b2 58 40 bc b8 9e 6c bc 60 43 00 3c
       -0.025596369 -0.011739897 -0.014442138 0.007828563
0000a0 8c a5 8c bc 80 10 ff 3b b6 71 fe 3c 46 05 28 bc
       -0.017168783 0.0077839494 0.031060081 -0.010255164
0000b0 d8 8b f5 bc b0 02 95 3b 63 36 dc bc fa 62 d4 bc
       -0.02997391 0.0045474395 -0.026881402 -0.025926102
0000c0 e8 36 1c 3c 64 c5 92 bb 56 9d d9 3c 68 20 fb 3b
       0.009534575 -0.004479097 0.026564281 0.0076637752
0000d0 16 00 af 3c 6e 00 eb 3c 20 dc bd 3a 60 98 2d 3c
       0.021362346 0.028686728 0.0014485158 0.010595411
0000e0 30 1b 00 3c 10 e8 9e bc 44 ab 01 3c f8 d1 a5 3c
       0.007818982 -0.019397765 0.007914368 0.020241722
0000f0 7c c8 da bc 06 c0 bc 3c 1c a4 ad 3c 70 fa 9d 3b
       -0.026706927 0.023040783 0.021196418 0.0048211142
000100 e6 67 b5 3c 02 60 b8 3c 4a 59 84 bc b5 b6 a7 bc
       0.02214427 0.022506718 -0.016155858 -0.020472864
000110 c3 b7 ca bc 60 13 5f bb e7 2a 00 3d 8a 29 b6 bc
       -0.024745828 -0.0034038648 0.031290915 -0.022236604
000120 88 3b 84 3b fc b1 1a 3c 3c 64 cb bc 75 2d 0d 3d
       0.004035417 0.009441849 -0.024828069 0.03446718
000130 44 bd 7f 3c 53 ad 0e 3d b8 98 45 bc da 2a eb 3c
       0.015609089 0.034833264 -0.012060337 0.028706957
000140 90 71 5c 3c ee 71 0e bd 90 8a 74 3c 70 86 d4 3c
       0.01345481 -0.03477662 0.014925614 0.025943011
000150 2c 10 c0 bc f0 38 68 3c 9c 08 d3 bb 4a f7 97 bc
       -0.023445211 0.014173731 -0.0064402353 -0.018550534
000160 80 c3 8a bc 4a 40 8e 3c fc 11 2c 3c 56 48 cf 3c
       -0.016938925 0.01736464 0.010502335 0.025303047
000170 b8 a5 a6 3b 90 e5 51 bb 48 96 c6 3c 90 d0 b2 3c
       0.005085673 -0.00320277 0.024241582 0.021827966
000180 9e e2 fd 3c 35 ea 99 bc 00 4b ac ba b0 09 9f 3b
       0.030991849 -0.018788436 -0.001314491 0.0048534498

layers.0.weight f4 [100, 784]
000000 a0 18 e6 3b bc 29 0b bc 8c 60 e2 bc 00 80 b8 bb
       0.0070219785 -0.008493837 -0.027633928 -0.005630493
000010 2e 88 fd bc a1 33 e8 bc 20 6c b8 bc ea 99 89 3c
       -0.030948725 -0.028344931 -0.022512496 0.016797025
000020 b4 f3 0a bd e2 ec f8 3c 9c 56 e0 bc 7c 0a 3a bc
       -0.03392382 0.030386392 -0.027385049 -0.011355039
000030 95 e4 dc bc 80 7c 3b bc 63 1c d2 bc 3e 0d a3 3c
       -0.026964465 -0.011443257 -0.025648301 0.019903775
000040 06 36 fd 3c 3e 51 b1 bc b0 10 10 bd fa 49 c7 bc
       0.03090955 -0.021645185 -0.035172164 -0.024327267
000050 2a 44 b3 bc 4e 54 bc bc 20 ca 95 3c 40 91 a8 bc
       -0.02188309 -0.022989418 0.018284857 -0.020577073
000060 0e d4 0e bd 26 a1 f3 3c 5c 3a ce bb e0 d3 04 bc
       -0.0348702 0.029739928 -0.006293578 -0.008107156
000070 78 82 b1 3b 40 54 01 3c 44 e6 0f 3c 02 62 c4 3c
       0.0054171644 0.007893622 0.008782927 0.023972515
000080 45 ec 03 3d fe 95 b3 3c 5c be 40 bc 10 d6 90 bb
       0.032207746 0.021922108 -0.011764135 -0.0044200495
000090 8a 51 36 bc ab 22 08 bd 64 ee 15 3c f0 36 bf 3b
       -0.011127839 -0.033236187 0.009151075 0.0058354065
0000a0 45 e5 10 3d 0f 7c 07 bd 97 e6 0a bd 32 f4 bc 3c
       0.0353749 -0.033077296 -0.033911314 0.02306566
0000b0 b8 28 dc 3b 46 34 6c bc 50 fd 0f 3b c0 dd 52 bc
       0.0067187212 -0.01441676 0.0021971054 -0.012870252
0000c0 b0 59 bc 3c 75 8b b1 bc 28 91 bd 3b dc af c8 3c
       0.022991985 -0.021672944 0.0057851262 0.024497919
0000d0 c8 1b e6 bc 00 a0 60 ba 00 6a b8 38 60 d4 b7 3c
       -0.028089419 -0.0008568764 8.793548e-05 0.022440135
0000e0 46 3f 44 bc a1 71 ef bc 71 63 fb bc 64 e3 62 3c
       -0.011977976 -0.029228987 -0.030687066 0.013848159
0000f0 6e 29 2e bc dc 68 62 3c 95 bb a2 bc c8 68 cc 3b
       -0.010629995 0.013818946 -0.019864837 0.006238077
000100 c0 1c c6 3c f8 44 b8 bb 80 b7 2c ba d4 b9 0f bd
       0.024183631 -0.005623456 -0.0006588623 -0.03508933
000110 c0 39 30 3c 00 12 dc 3b b0 40 4a 3c 74 61 12 3c
       0.010755956 0.006716013 0.012344524 0.008934367
000120 3c 9f 49 bc f0 19 9f 3b 90 a0 2b bb 9e 39 b8 bc
       -0.012306031 0.004855387 -0.0026188232 -0.022488412
000130 5e dc 8f 3c a4 68 84 3c 19 4a 08 3d 89 f3 02 3d
       0.017561134 0.016163178 0.03327379 0.031970534
000140 80 7c 3d bc 83 8f 0b 3d 60 b2 50 bb 5a a0 cd bc
       -0.011565328 0.03407241 -0.00318446 -0.025100876
000150 a0 02 b7 ba 00 0a ed 38 f0 ce 98 bb 16 8c ae 3c
       -0.0013962574 0.00011302903 -0.0046633407 0.021307033
000160 98 70 c0 bc 68 8c 18 3c 11 da 02 3d 98 5c 45 bc
       -0.023491189 0.009310819 0.031946246 -0.012046002
000170 8c 53 f6 bc bc f4 b4 3c 90 01 02 bb 40 3f f3 bb
       -0.030069135 0.022089355 -0.0019837357 -0.0074233115
000180 d0 1f 0b 3c 05 00 ac bc 8e c0 ed bc 08 28 d2 3c
       0.008491471 -0.020996103 -0.029022481 0.025653854
000190 40 67 4a bc 2e b4 fe 3c b2 f1 e1 3c 13 86 e6 bc
       -0.012353718 0.031091776 0.02758107 -0.028140103
0001a0 40 39 00 bd b0 89 c9 bb 35 ac bd bc c6 00 7c bc
       -0.031304598 -0.006150447 -0.023153404 -0.015381044
0001b0 2a ab a6 3c 46 14 e5 3c b2 e3 dd 3c ea 8a ed bc
       0.02034529 0.027963769 0.027086113 -0.028996903
0001c0 fe f0 f3 3c 74 bc 55 3c f0 04 c1 bb 93 66 11 3d
       0.029778 0.013045419 -0.005890481 0.035498213
0001d0 70 92 e7 bb d0 cb 1b 3c 12 36 e6 3c 1a d5 f6 bc
       -0.0070670173 0.009509042 0.028101955 -0.030130912
0001e0 1a a7 ae 3c a6 9d a0 3c 30 f7 c7 bb a6 b3 b2 3c
       0.021319915 0.019606423 -0.006102465 0.021814179
0001f0 08 99 0f bd 4a 51 99 bc 6e 8e 03 bc 20 b9 83 ba
       -0.03505805 -0.01871552 -0.008029563 -0.0010049678
000200 e8 a9 86 3c 80 74 25 3a 88 c9 6b 3c ac c3 cb 3c
       0.01643844 0.00063116103 0.0143913105 0.024873577
000210 fc 02 43 bc 08 dc f6 bc 98 b8 4f 3c cc 93 e3 bc
       -0.011902567 -0.030134216 0.012678288 -0.027780436
000220 de 9d ef 3c 83 bb 0a 3d 1a 58 04 bd 24 50 40 3c
       0.029250082 0.03387023 -0.032310583 0.011737857
000230 7c aa bd bc d5 00 c2 bc 3c c7 65 3c 9a c9 c2 bc
       -0.023152582 -0.023682037 0.014024552 -0.023777772
000240 42 48 f0 3c 1c 10 d7 3c 2a 7f cd 3c 00 1d 80 3b
       0.02933133 0.026252799 0.02508505 0.003909707
000250 26 6a f5 3c 7e 64 cf 3c 60 1a fd ba d6 7c ea 3c
       0.029957842 0.025316473 -0.0019310229 0.02862398
000260 cc 4e 9b bc 91 81 f5 bc de a3 b1 3c 50 67 0f bb
       -0.018958472 -0.029969009 0.021684583 -0.0021881647
000270 08 86 a8 bb d0 2f 87 3b 24 01 37 3c 34 bb 4f 3c
       -0.005142931 0.0041255727 0.011169706 0.01267891
000280 d5 c3 ba bc d0 2f 2c 3b 20 c8 45 bb 8b 77 0e 3d
       -0.022798458 0.0026273616 -0.0030179098 0.034781974
000290 fa 99 92 3c 57 21 a0 bc d3 59 b4 bc 30 64 07 3c
       0.017895687 -0.019547148 -0.022015488 0.008263633
0002a0 d8 a4 bd 3c d3 ec 93 bc 31 17 07 3d 17 81 86 bc
       0.023149893 -0.018057263 0.0329811 -0.016418977
0002b0 10 77 e1 3b 3a 9b a4 bc 10 9c a4 3b ee 72 0a bc
       0.0068806484 -0.020093549 0.005023487 -0.008450253
0002c0 22 f9 ba 3c aa de 95 3c 88 49 29 3c 70 d8 7f 3c
       0.022823874 0.018294651 0.010332473 0.015615568
0002d0 b8 60 8f 3b 33 36 03 bd fc cf b3 bc 85 4a 9a bc
       0.0043755434 -0.03203411 -0.02194976 -0.018834362
0002e0 50 ec 62 3b 5c e0 cf bc 4a 28 ad bc fc 58 cf bc
       0.0034625717 -0.025375538 -0.021137375 -0.025310986
0002f0 3d 18 0f bd 82 9a a6 3c 45 1d 09 bd d7 0e 94 bc
       -0.034935225 0.020337347 -0.03347518 -0.018073482
000300 34 2d 89 3c 4c 55 b7 3c aa 48 94 bc c0 29 65 ba
       0.016745187 0.02237954 -0.018101055 -0.0008741878
000310 2f 4a 10 3d 55 fd e2 bc c0 48 e3 3b 6a c9 fd bc
       0.035226997 -0.027708689 0.0069361627 -0.03097983
000320 e8 67 72 3c ce c9 c8 bc e4 de c9 bb b5 4f 0e bd
       0.014795281 -0.02451029 -0.006160604 -0.034743983
000330 40 88 14 ba e6 3c 5d bc ef aa 02 3d 4e 93 d1 bc
       -0.0005666055 -0.013503289 0.031901296 -0.025582936
000340 aa e0 a4 3c 50 f6 27 3b e0 92 af 3c aa 0d da 3c
       0.02012666 0.0025628991 0.02143234 0.026617844
000350 f8 04 92 3c 03 56 f3 bc 95 f7 0d bd f2 66 32 bc
       0.017824635 -0.0297041 -0.03465994 -0.010888802
000360 04 2b 7d 3c 58 02 8b bb ac 4b d8 3c 08 12 a4 3c
       0.01545215 -0.0042422228 0.02640327 0.02002813
000370 7c 3e 71 bc 1f dc 01 bd 06 5e a1 3c fc 36 ad 3c
       -0.01472437 -0.031704064 0.019698154 0.021144383
000380 40 b5 5d 3c f5 20 86 bc 35 a2 0e 3d 78 e6 04 bc
       0.013531983 -0.016373137 0.03482266 -0.008111589
000390 90 c2 d7 3c c4 d8 44 3c 42 01 fb 3c 70 54 4f 3b
       0.026337892 0.012014572 0.030640248 0.0031636022
0003a0 00 98 1e bc ca e6 b9 bc 33 55 0c bd 0e d9 65 bc
       -0.009679794 -0.022693057 -0.03426094 -0.014028801
0003b0 c0 ae d7 3a 7e 8a ea bc f8 1e cb bc ff 76 0e 3d
       0.0016455278 -0.028630491 -0.02479504 0.034781452
0003c0 d7 b8 93 bc e0 78 2c bc c0 50 a2 3b 86 35 b7 3c
       -0.018032474 -0.010526866 0.004953474 0.02236439
0003d0 ae 73 67 bc 28 f3 a1 3c fc b4 c1 3c 40 99 95 bc
       -0.014126701 0.019769266 0.02364587 -0.018261552
0003e0 68 67 a6 3c c8 37 4c 3c 78 9c 71 3c 5c d9 b9 bb
       0.02031298 0.012464471 0.014746778 -0.005671663
0003f0 f0 6c c0 3b 66 5f 4b bc 70 f1 b7 bb 9c d2 91 bc
       0.0058723614 -0.0124128815 -0.0056134984 -0.017800622

layers.2.bias f4 [10]
000000 47 3c be 3d d3 04 45 bd b4 c6 93 bc c1 6c ae 3d
       0.09288841 -0.048100304 -0.018039085 0.08516837
000010 00 28 f4 3a c2 75 87 bd 4c b9 e6 3c 1e bc 84 bd
       0.0018627644 -0.066142574 0.028164528 -0.06481193
000020 1b e7 be bd d9 c0 86 3d
       -0.093214236 0.065797515

layers.2.weight f4 [10, 100]
000000 56 ce 84 bd 30 a9 64 bc a8 7d 8d bd f4 c9 9a bc
       -0.06484668 -0.013956353 -0.06908733 -0.018895127
000010 d7 d4 b7 3d 76 b9 21 3d f4 2d 87 bc 60 b7 c2 bb
       0.08976143 0.03948351 -0.016501404 -0.00594227
000020 e3 76 90 3d 6d 1b 54 bd 7e 1d 01 3d 98 78 ec bc
       0.07053926 -0.051783968 0.031522267 -0.028866097
000030 00 8a e0 3a 9d e5 77 bd 78 fa a6 bc 73 64 93 3d
       0.0017130971 -0.06052171 -0.020383105 0.071968935
000040 0b be 9e bd ab 19 83 3d 6a df 43 3d 5e 0d 29 3d
       -0.077510916 0.0640138 0.047820486 0.041272514
000050 28 c1 ad 3c cc 07 df 3c b0 98 a0 bb c0 ea 19 bb
       0.021210268 0.027225398 -0.0049010143 -0.002348587
000060 d2 62 5a 3d d8 55 ab 3c 23 bb cb 3d b1 de b3 3d
       0.0533169 0.020914957 0.09947803 0.087827094
000070 08 19 b4 bc 54 ed c4 3c 58 e0 52 3c 8d 7b 23 bd
       -0.021984592 0.024038948 0.0128708705 -0.03991275
000080 e6 9f 06 3d 02 b2 9e bd fd 59 56 bd 2d 9c 56 bd
       0.032867335 -0.07748796 -0.052331913 -0.052395035
000090 20 1b e2 3b 62 9b 16 3d 1d 40 38 bd b0 76 cc bd
       0.006900206 0.03676928 -0.04498302 -0.09983575
0000a0 82 45 a7 bd b6 16 0b 3d b0 52 3d 3c fb 2f 9b bd
       -0.081675544 0.033957206 0.011555359 -0.07577511
0000b0 58 9f 38 bc a2 d0 4f 3d de a9 0c 3d 10 59 c2 bd
       -0.011268459 0.050736077 0.034341685 -0.094896436
0000c0 4f 1e c6 3d 42 f2 11 3d 29 3f 93 3d 95 fc b3 3d
       0.0967375 0.035631426 0.07189781 0.087884106
0000d0 0a 20 83 bd b3 51 87 3d 81 7f 9b 3d 12 50 2e 3d
       -0.06402595 0.0660738 0.07592679 0.04255683
0000e0 7d c6 8f 3d 34 0f b1 bc 80 ef 2b bd 65 0b bc bd
       0.070202805 -0.021613695 -0.041976452 -0.09181861
0000f0 c6 9b 34 3d ed 4e 9b 3d c0 69 27 3c cb 7f a3 3d
       0.04409387 0.07583413 0.010218084 0.07983359
000100 7a 1e 10 3d ab 6c 92 3d 4c e0 bc 3c eb b1 b8 3d
       0.035185315 0.07149633 0.023056172 0.0901831
000110 d0 42 20 bd 77 24 1a bd 36 8b 18 bd f2 7f 16 3d
       -0.039126217 -0.03763243 -0.037242137 0.036743112
000120 b2 fb 1c 3d 47 e2 b2 bd 2a f5 66 3d 57 5b 4f bd
       0.038325973 -0.08734565 0.05638615 -0.050624218
000130 20 fe de bc f2 bc 6c 3d 47 ec 68 bd 35 41 b9 3d
       -0.027220786 0.05779738 -0.056865957 0.090456404
000140 d4 45 d4 3c 60 35 58 bb fa 63 11 3d 1a 27 71 3d
       0.025912203 -0.0032990798 0.035495736 0.05887518
000150 49 be c1 3d 40 ec ea bc 61 aa 83 3d 68 09 ff bc
       0.09460122 -0.028677106 0.064289816 -0.031132415
000160 24 e0 fb 3c a0 28 f5 bc 91 15 c6 3d a8 ce d2 bc
       0.030746527 -0.029926598 0.09672082 -0.025733307
000170 80 35 cf ba 67 4b 1e bd 73 c8 79 bd c7 63 60 bd
       -0.0015808791 -0.038646128 -0.06098218 -0.054782655
000180 d2 a1 af bd 5f 6d c6 3d de 1f 8d bd c0 d7 02 bc
       -0.08575787 0.0968883 -0.06890844 -0.007986009
000190 ae 53 aa bd bb ca 8f 3d 27 b5 30 bd dd a7 91 3d
       -0.08316742 0.0702109 -0.04314151 0.071120955
0001a0 c4 f8 12 bd 02 d1 36 3d db 08 9f bd 80 2d 82 3c
       -0.035881773 0.04463292 -0.07765361 0.015890837
0001b0 c6 5e 1c 3d a7 10 36 bd bc 3c f5 3c bc 39 87 bd
       0.03817632 -0.044449475 0.029936187 -0.06602809
0001c0 00 5b 81 bd c0 fc c6 3c aa 2c 0e bd d2 40 3c 3d
       -0.06316185 0.024290442 -0.034710564 0.045960255
0001d0 cd 77 1f bd 9f 10 c5 bd c4 3f e1 3c 60 08 65 3b
       -0.03893261 -0.09622311 0.027496226 0.003494762
0001e0 17 c6 86 3d a8 a1 81 bc 98 53 96 bd 98 2e eb bc
       0.065807514 -0.015824154 -0.07340163 -0.028708741
0001f0 28 f6 45 bc 42 12 48 3d c0 32 c0 3a ec c2 da bc
       -0.012082614 0.048845537 0.0014663562 -0.026704274
000200 a8 cc cc bd 68 c1 4f bc 78 56 a1 bc 86 ec 0e bd
       -0.099999726 -0.012680389 -0.019694552 -0.034893535
000210 df e5 c5 bd c6 1e 23 3d 11 3b 98 3d 2a e5 67 bd
       -0.09662985 0.03982427 0.07433141 -0.056615032
000220 be d1 38 3d 0f d5 ca bd a6 86 a4 bd ed 34 c3 3d
       0.0451219 -0.09903919 -0.08033495 0.09531579
000230 7d ec aa bd a3 df c7 3d d4 93 a0 bc 9a b2 7a 3d
       -0.08345888 0.09759452 -0.01960174 0.061205484
000240 36 e0 15 bd 93 fc a6 3d 0d d9 7e bd a0 9e 94 3c
       -0.036590777 0.081536435 -0.062218715 0.018142045
000250 40 4d d6 3a 0e 72 01 3d 84 7c cf 3c cb ba 8f bd
       0.0016349927 0.03160291 0.025327928 -0.0701805
000260 5b b2 a3 bd 5a c5 20 3d ca ff 79 bd c0 04 47 3b
       -0.07993003 0.03925071 -0.061034955 0.0030367821
000270 50 9e 38 bc 8d ef 93 bd 4b b1 c4 3d 92 dc 05 3d
       -0.011268213 -0.07223425 0.096041285 0.032681055
000280 7a 3f 02 3d 90 1c 98 bd b9 5a 8c 3d 1b e4 90 3d
       0.031798817 -0.07427323 0.068532415 0.07074758
000290 20 34 a9 bd 69 d8 a7 3d 6d ac 25 bd e8 99 47 bc
       -0.08261895 0.08195574 -0.04044764 -0.01218269
0002a0 58 6e c1 bd 92 11 8b bd 47 82 6a bd 28 16 97 bc
       -0.094448745 -0.06790461 -0.05725315 -0.018443182
0002b0 12 81 7f 3d d0 6f 84 bb e8 8e 74 3c a6 9e 3e 3d
       0.06237895 -0.0040416494 0.01492665 0.046538018
0002c0 43 37 34 bd 81 b3 84 3d 12 e9 64 3d c2 68 79 3d
       -0.043998014 0.0647955 0.055886336 0.06089092
0002d0 50 3f 16 bc 37 9d be bd d4 7c c3 3c 85 db ac 3d
       -0.009170368 -0.0930733 0.023863234 0.084403075
0002e0 57 29 94 3d 3e b9 33 3d 3d 8b b4 3d 62 b2 61 3d
       0.072344474 0.043877833 0.0881562 0.05510176
0002f0 78 b3 c8 3c 1d 6a b3 bd 9c 02 04 bd 98 76 d6 bc
       0.02449964 -0.08760474 -0.03222905 -0.026179597
000300 c7 07 7a bd 41 c2 82 3d 2e 3f 18 3d 6d f0 93 bd
       -0.061042573 0.06384707 0.037169628 -0.07223592
000310 e7 f5 b1 3d de 04 7e 3d 79 f5 89 3d 0a af 04 bd
       0.0868948 0.06201636 0.06736273 -0.032393493
000320 ad 75 c2 3d 25 29 b2 bd 22 55 4f 3d 30 e2 8f bb
       0.09495101 -0.08699254 0.0506183 -0.0043909773
000330 a8 b9 65 bc 51 70 8c 3d bc 7c 01 bd 6f 42 9e 3d
       -0.014021315 0.0685736 -0.031613097 0.07727515
000340 c2 1e 01 3d 2e eb 73 3d c0 51 a7 3c 82 57 4e 3d
       0.031523474 0.059550457 0.020424724 0.050376423
000350 c0 bd b9 3c 53 f0 50 bd b6 d6 4f 3d d0 21 54 bc
       0.022673488 -0.05101044 0.050741874 -0.012947515
000360 e7 7a ca 3d f0 33 03 3c b8 ad 89 bd 28 3b bc 3c
       0.09886723 0.008007988 -0.06722587 0.022977427
000370 30 58 af bd 42 a6 15 3d 18 32 d1 bc 14 79 08 bd
       -0.08561742 0.03653551 -0.025536582 -0.033318594
000380 60 12 98 3b 19 72 bc 3d 68 8f e3 bc e1 a8 94 3d
       0.0046408623 0.0920145 -0.027778342 0.072587736
000390 8e 63 51 3d 0c a5 89 bd 15 ba 89 bd 02 77 4c 3d
       0.051120333 -0.06720933 -0.067249455 0.049918182
0003a0 d4 c1 91 bc ed 85 8c 3d e9 76 b0 3d 8a 44 6b bd
       -0.01779262 0.06861482 0.0861643 -0.05743841
0003b0 52 a7 9b bd f1 cb 91 3d 27 a5 b4 3d f0 21 10 bd
       -0.07600273 0.07118977 0.08820563 -0.035188615
0003c0 f3 43 bc bd ec de a4 bc 37 c1 b3 bd 10 36 61 bd
       -0.09192648 -0.020125829 -0.08777087 -0.0549832
0003d0 46 33 72 3d 74 b8 81 bc 73 7a 77 bd 3e 05 24 3d
       0.05913093 -0.015835024 -0.06041951 0.04004406
0003e0 67 17 c7 3d 66 ff 12 bd 61 f3 be 3d d1 3f bd 3d
       0.097212605 -0.0358881 0.093237646 0.09240688
0003f0 ba f2 2f 3d 00 09 39 bc 50 ba 5b bd c8 bd ad 3c
       0.04295609 -0.01129365 -0.05364448 0.021208659
