Assets/nn.onnx (onnx, 631 bytes, 3 tensors)

layers.0.bias f4 [3]
000000 cc ad 5f 3e 06 89 9e 3e 26 c9 d8 3e
       0.21843642 0.30963916 0.42340964

layers.0.weight f4 [3, 5]
000000 59 bd c0 be 33 27 e4 be 86 c0 cc be 80 26 41 bd
       -0.3764446 -0.44561157 -0.39990634 -0.047155857
000010 ac b4 b4 bd 20 f5 0e be 18 33 50 bd 12 67 8b be
       -0.08823523 -0.13960695 -0.050829977 -0.27227074
000020 a0 5a a5 3d 48 bc 58 be a0 54 87 3c 32 eb c6 3e
       0.08073926 -0.21165574 0.016519845 0.38851315
000030 60 b4 d0 3e 15 22 9a be 80 9d c2 3c
       0.40762615 -0.30104128 0.023756742

layers.2.weight f4 [1, 3]
000000 64 e6 75 3e df d8 03 bf 91 6a f0 be
       0.24013668 -0.51502794 -0.46956304
